Layer (type)                 Output Shape              Param #
=================================================================
batch_normalization_1 (Batch (None, 224, 224, 3)       12
_________________________________________________________________
conv2d_1 (Conv2D)            (None, 222, 222, 16)      448
_________________________________________________________________
max_pooling2d_1 (MaxPooling2 (None, 111, 111, 16)      0
_________________________________________________________________
batch_normalization_2 (Batch (None, 111, 111, 16)      64
_________________________________________________________________
conv2d_2 (Conv2D)            (None, 109, 109, 32)      4640
_________________________________________________________________
max_pooling2d_2 (MaxPooling2 (None, 54, 54, 32)        0
_________________________________________________________________
batch_normalization_3 (Batch (None, 54, 54, 32)        128
_________________________________________________________________
conv2d_3 (Conv2D)            (None, 52, 52, 64)        18496
_________________________________________________________________
max_pooling2d_3 (MaxPooling2 (None, 26, 26, 64)        0
_________________________________________________________________
batch_normalization_4 (Batch (None, 26, 26, 64)        256
_________________________________________________________________
conv2d_4 (Conv2D)            (None, 24, 24, 128)       73856
_________________________________________________________________
max_pooling2d_4 (MaxPooling2 (None, 12, 12, 128)       0
_________________________________________________________________
batch_normalization_5 (Batch (None, 12, 12, 128)       512
_________________________________________________________________
conv2d_5 (Conv2D)            (None, 10, 10, 256)       295168
_________________________________________________________________
max_pooling2d_5 (MaxPooling2 (None, 5, 5, 256)         0
_________________________________________________________________
batch_normalization_6 (Batch (None, 5, 5, 256)         1024
_________________________________________________________________
global_average_pooling2d_1 ( (None, 256)               0
_________________________________________________________________
dense_1 (Dense)              (None, 6)                 1542
=================================================================
Total params: 396,146
Trainable params: 395,148
Non-trainable params: 998
_________________________________________________________________
***Accuracy = 0.6883720930232559


-----------***********-----------
Time for Forward pass: 95179 micro secs
